train_main/mg90s_actuator_net_optimized.pth (torch, 24794 bytes, 5 tensors)

net.0.weight f4 [64, 15]
0	0xbf021369	-0.5081087
1	0x3f859a64	1.0437741
2	0xbe703a7f	-0.23459814
3	0xbe6af31f	-0.22944306
4	0x3db15c80	0.08660221
5	0x3e67882e	0.22610542
6	0xbf82700b	-1.0190443
7	0x3ec166dd	0.3777379
8	0xbea817fa	-0.32830793
9	0x3f157983	0.5838854
10	0x3e2f4f57	0.1712011
11	0xbf435651	-0.76303583
12	0xbeb0e1f9	-0.34547403
13	0x3f2ea451	0.68219477
14	0x3f2bfea9	0.67185456
15	0xbfdb8242	-1.7149127
16	0xbeab8e1b	-0.33506855
17	0x3f99cf75	1.2016436
18	0xbed1d8c1	-0.40985683
19	0xbe676dc3	-0.22600465
20	0xbf1308fe	-0.57435596
21	0x3f6edd51	0.9330645
22	0xbe85cb8b	-0.26131853
23	0x3d9bd6e2	0.07609345
24	0x3c12a119	0.0089495415
25	0x3f351321	0.70732313
26	0x3f04170d	0.5159767
27	0x3f44ccbe	0.7687491
28	0xbe7244e0	-0.23659086
29	0xbd298607	-0.041387584
30	0xbf172def	-0.59054464
31	0xbf92f526	-1.1481063
32	0x3e0f2d44	0.13982111
33	0x3dcad86e	0.09904562
34	0x3e0dfe4c	0.13866538
35	0x3f227a30	0.63467693
36	0xbf0de39a	-0.5542542
37	0xbed912de	-0.42397207
38	0xbdd94b7f	-0.10610103
39	0x3ea3660a	0.31913787
40	0xbd359b97	-0.044337835
41	0x3f216b9a	0.6305481
42	0xbecdc19f	-0.40186784
43	0x3f1e4ea8	0.6183877
44	0x3f8834d3	1.0641121
45	0x3d0be66b	0.03415529
46	0xbd986f21	-0.07443071
47	0x3e22ff13	0.15917616
48	0x3dbf08c1	0.093278416
49	0xbda80168	-0.08203393
50	0x3d8d5f41	0.06902934
51	0xbca6414b	-0.020294806
52	0xbcb0d84c	-0.021587513
53	0x3e08a4d8	0.13344133
54	0xbc87b45f	-0.0165655
55	0x3ef0baaf	0.47017428
56	0xbefd8864	-0.4951812
57	0x3e4b9fc7	0.19885169
58	0x3f0dab7c	0.5533979
59	0xbdcb34f6	-0.09922211
60	0xbe47231c	-0.19446987
61	0x3ede7612	0.43449455
62	0x3dc6fbaf	0.097159736
63	0xbe210fca	-0.1572868
64	0xbf2ceffa	-0.67553675
65	0xbe6efac4	-0.23337847
66	0xbdea0eb9	-0.114285894
67	0xbd579bc7	-0.052638795
68	0x3e8f696b	0.28010115
69	0xbe144611	-0.14479853
70	0x3e8bf448	0.2733481
71	0x3eaced30	0.3377471
72	0xbf059639	-0.52182347
73	0x3ea68d8e	0.32529873
74	0xbe6870f9	-0.22699346
75	0xbec089e0	-0.3760519
76	0x3eb44521	0.3520899
77	0xbf1b6287	-0.60697216
78	0x3f17d80c	0.59314036
79	0xbebbbd9c	-0.36668098
80	0xbd69f2da	-0.057116367
81	0xbeda18c7	-0.4259703
82	0x3f5bfc4e	0.8593186
83	0xbe04979b	-0.12948458
84	0x3c299449	0.010350295
85	0xbd3091ee	-0.04310792
86	0x3f2e27f9	0.68029743
87	0x3e38c8d3	0.18045358
88	0x3f13f871	0.57800967
89	0xbf819583	-1.0123752
90	0xbf1cdfff	-0.6127929
91	0x3e933b3f	0.2875614
92	0x3ed5efc8	0.417845
93	0x3f0af3e8	0.5427842
94	0x3f4aa8de	0.7916392
95	0xbeeb0a75	-0.45906416
96	0xbf47111f	-0.777605
97	0xbdb746f4	-0.0894908
98	0x3ec839b8	0.39106536
99	0xbdb5e147	-0.08880859
100	0xbed1ff3a	-0.41015035
101	0x3f05a837	0.522098
102	0x3f28cec8	0.65940523
103	0x3d21f00b	0.039535563
104	0xbfa757db	-1.3073686
105	0xbf849418	-1.0357695
106	0x3ecbf01d	0.3983163
107	0x3d41326c	0.047167227
108	0xbe9e4fac	-0.3092016
109	0xbb186cb3	-0.002325815
110	0xbe688cda	-0.2270998
111	0xbe149289	-0.14509024
112	0x3d335219	0.043779466
113	0x3ecea9f3	0.40364036
114	0x3f35e4a4	0.71052
115	0xbe5c80f9	-0.21533574
116	0xbe92c189	-0.2866328
117	0x3e25828c	0.16163081
118	0xbd824107	-0.06360059
119	0x3ec95376	0.39321488
120	0xbf68359e	-0.90706813
121	0x3e06ade4	0.13152272
122	0xbf4adda0	-0.7924442
123	0x3f70b3d8	0.9402442
124	0xbf047a33	-0.5174896
125	0x3f45f988	0.7733388
126	0xbeeb606b	-0.45972
127	0x3f23106a	0.6369692
128	0xbf5f1f68	-0.871573
129	0x3e8b7041	0.2723408
130	0x3f1ff5b0	0.62484264
131	0xbf10c6db	-0.5655343
132	0x3e18e45f	0.14930867
133	0x3ecdae13	0.4017187
134	0x3eb5ab06	0.35482043
135	0x3faa8d66	1.3324401
136	0xbe932b35	-0.28743902
137	0xbf407cad	-0.7519024
138	0x3f246e46	0.64230764
139	0xbd8faf31	-0.07015837
140	0x3f094938	0.5362735
141	0xbf05ba75	-0.52237636
142	0xbe834136	-0.2563569
143	0xbd862a3f	-0.065510266
144	0x3ea8ad27	0.32944605
145	0xbdd76d70	-0.105189204
146	0xbdea6f61	-0.11447025
147	0xbe539cf7	-0.20665346
148	0x3f1a28fe	0.602188
149	0xbf918a94	-1.1370416
150	0x3f42885f	0.75989336
151	0x3eea357b	0.45743927
152	0xbec2e92e	-0.38068527
153	0xbe00ceed	-0.12578936
154	0xbf1c1cec	-0.6098163
155	0x3e223f61	0.1584449
156	0xbe9d2edb	-0.3069981
157	0x3ec8702a	0.39148074
158	0xbde76fd4	-0.113006264
159	0x3d818565	0.06324271
160	0xbf530502	-0.82429516
161	0xbf33f580	-0.7029648
162	0x3f2dd843	0.67908114
163	0x3f3a82c2	0.7285577
164	0x3e7a25fc	0.24428552
165	0x3e1be649	0.15224566
166	0xbef4b0d6	-0.47791165
167	0x3ec5d7ea	0.38641292
168	0xbdffc999	-0.124896236
169	0x3e4d79a6	0.20065936
170	0xbf018135	-0.5058778
171	0x3e070fcc	0.1318962
172	0xbd77dd45	-0.060513753
173	0xbe078e9b	-0.13237993
174	0x3df60c05	0.12014011
175	0x3e78d29e	0.24299094
176	0xbdcc610b	-0.09979447
177	0x3f484fba	0.78246653
178	0xbe483ddc	-0.19554847
179	0x3ea6c986	0.32575625
180	0x3f153392	0.58281815
181	0xbf5910f5	-0.847915
182	0xbe756f8d	-0.23968334
183	0x3e15174f	0.14559673
184	0x3f05f15b	0.52321404
185	0x3dd239fa	0.102649644
186	0xbe8a3f1e	-0.2700128
187	0x3d1b234d	0.037875462
188	0x3e925ff9	0.28588846
189	0x3aa65d6d	0.0012692638
190	0xbdfe7775	-0.12425128
191	0xbb12fc2a	-0.0022428134
192	0xbef2e065	-0.47436824
193	0x3f4099ac	0.75234485
194	0xbea37d5c	-0.3193158
195	0x3f86ca14	1.0530419
196	0x3d56dcf2	0.052456804
197	0xbf2f1b01	-0.6840058
198	0x3e39eb17	0.18156086
199	0xbf0da701	-0.5533295
200	0x3ddf6470	0.10907829
201	0x3e406068	0.18786776
202	0x3f0afbc4	0.54290414
203	0xbe267154	-0.16254169
204	0xbdb25aec	-0.08708748
205	0xbf1d2dd3	-0.6139805
206	0xbef74b91	-0.4829984
207	0x3dce1dbb	0.100642644
208	0x3d411e40	0.04714799
209	0xbdd843fc	-0.10559842
210	0x3f583621	0.84457594
211	0xbeb0cb43	-0.34530076
212	0xbe7b4e1a	-0.24541512
213	0xbfa90d3e	-1.3207166
214	0x3ea10003	0.3144532
215	0x3d046312	0.032321043
216	0x3e886788	0.26641488
217	0xbe9d606f	-0.30737635
218	0xbcb18ab2	-0.02167258
219	0xbe302645	-0.17202099
220	0x3e27610f	0.16345619
221	0x3c9c0b9d	0.019048506
222	0x3e2976d3	0.16549234
223	0x3f84f5a2	1.0387461
224	0xbe4a58e7	-0.19760476
225	0x3ee4988f	0.44647643
226	0x3ee045c8	0.4380324
227	0xbf31e95a	-0.6949669
228	0x3ed99441	0.4249592
229	0x3e0bddf5	0.13658889
230	0xbe9da569	-0.3079026
231	0xbf1a5c4d	-0.6029709
232	0x3f306541	0.689045
233	0xbe1207dd	-0.14260812
234	0xbf1672e6	-0.5876907
235	0x3b12754a	0.0022347742
236	0x3eefa98f	0.4680905
237	0xbecbbba9	-0.3979161
238	0xbe1420cc	-0.14465636
239	0xbf114de4	-0.56759477
240	0x3fa22441	1.2667314
241	0x3f9aebfd	1.2103268
242	0x3e8df80d	0.2772831
243	0x3dfeb8fc	0.12437627
244	0xbeb2f219	-0.3495033
245	0xbe18b609	-0.14913191
246	0xbf0a161c	-0.53939986
247	0xbebb0407	-0.3652651
248	0xbe091c13	-0.13389616
249	0x3f117996	0.5682615
250	0xbfa47fb6	-1.2851474
251	0xbebb15fb	-0.36540207
252	0x3e1b0ca1	0.15141536
253	0xbf298c47	-0.6622967
254	0xbdd30b75	-0.1030492
255	0x3ef85a03	0.48506173

net.0.bias f4 [64]
0	0xbeafa884	-0.34308255
1	0xbe8f2a01	-0.27961734
2	0x3ea1614c	0.31519544
3	0xbeb6bcd4	-0.3569094
4	0xbf418922	-0.75599873
5	0x3f3d3a3b	0.7391698
6	0xbf3a31e7	-0.72732395
7	0xbf78c6f3	-0.9717857
8	0xbf31d8e3	-0.6947157
9	0x3d8625a5	0.06550149
10	0xbde133ca	-0.10996206
11	0xbebc6aa6	-0.36800116
12	0xbf05b8f9	-0.5223537
13	0xbf3d7597	-0.7400755
14	0xbf47eadc	-0.7809274
15	0x3f85dabd	1.0457379
16	0x3e3e38cf	0.18576358
17	0xbe6f9b6e	-0.23399135
18	0x3d07028c	0.032961413
19	0xbf2c889b	-0.67395943
20	0xbf697908	-0.91200304
21	0x3f324999	0.6964355
22	0x3e7a1e68	0.24425662
23	0x3e47545c	0.19465774
24	0xbedc1f8d	-0.4299282
25	0xbf9fecbe	-1.2494123
26	0x3e3616a0	0.17782068
27	0x3e6c75a7	0.23091756
28	0x3ee84810	0.4536748
29	0x3d8eca98	0.069722354
30	0xbea82f2a	-0.32848483
31	0x3ca50176	0.020142298
32	0xbe846d6a	-0.25864726
33	0x3e81c851	0.25348142
34	0xbdbbb6dc	-0.09165737
35	0x3f1cd37a	0.6126019
36	0xbf2d6895	-0.67737705
37	0x3e284f7d	0.16436572
38	0xbf1af6ed	-0.6053303
39	0x3ef0dd71	0.47043946
40	0xbe62c7b2	-0.2214649
41	0x3ea737b7	0.32659695
42	0x3da97a28	0.082752526
43	0xbf9a9815	-1.2077662
44	0x3dbd0249	0.092289515
45	0xbcd8e02e	-0.026474085
46	0xbf09dfae	-0.53856933
47	0x3f73d270	0.9524298
48	0xbf9b5006	-1.2133796
49	0xbd5145b0	-0.05109185
50	0x3f0c5703	0.5482027
51	0xbe4d9adb	-0.20078604
52	0x3d74fdb6	0.05981227
53	0x3e5e4959	0.21707667
54	0xbdc28fe6	-0.09500103
55	0x3dc25d0c	0.094904035
56	0xbf479133	-0.7795593
57	0xbf5ed9d5	-0.87051135
58	0x3f620ac5	0.88297683
59	0xbf5e9cf1	-0.86958224
60	0x3e9417fb	0.28924546
61	0xbe4bca08	-0.19901288
62	0x3d86c216	0.06579988
63	0x3f24107b	0.6408765

net.2.weight f4 [64, 64]
0	0x3eb3b0f8	0.35095954
1	0xbed5b86d	-0.41742268
2	0x3ea1f334	0.31630862
3	0xbe437195	-0.19086297
4	0x3c033b4c	0.008009743
5	0x3e661e5c	0.22472519
6	0xbdb80aab	-0.0898641
7	0x3de56dad	0.112025596
8	0x3f5d77bb	0.8651082
9	0xbecf5167	-0.40491793
10	0xbe7414b6	-0.23836026
11	0xbe76ec64	-0.24113613
12	0x3eb3a0ab	0.35083517
13	0xbe7c1ed4	-0.24621135
14	0xbc3d2d16	-0.011546394
15	0xbd1f8460	-0.038944602
16	0x3e13b446	0.14424238
17	0xbe3a3c3b	-0.18187039
18	0xbdd57542	-0.10422756
19	0xbd9f7300	-0.077856064
20	0xbeb2a8e4	-0.34894478
21	0xbe827f05	-0.25487533
22	0xbe797df4	-0.24364454
23	0xbe6552ec	-0.22394913
24	0xbf29692d	-0.6617611
25	0x3db2d369	0.087317295
26	0xbeb75956	-0.35810345
27	0xbe502b59	-0.20329036
28	0x3e7a24fd	0.24428172
29	0xbeca1efb	-0.3947676
30	0x3f149fd6	0.5805639
31	0x3d2ec128	0.042664677
32	0xbefe10a6	-0.49622077
33	0xbdc67c00	-0.0969162
34	0x3d72a3bb	0.059238177
35	0xbefb2d3f	-0.49057958
36	0xbef829e8	-0.48469472
37	0x3e9954a8	0.299474
38	0xbdb0dd93	-0.08636012
39	0x3ef54521	0.47904304
40	0x3ebfc420	0.3745432
41	0xbcd6a4a3	-0.026201552
42	0x3ed493a9	0.41518906
43	0x3e82202e	0.25415176
44	0x3ddef447	0.10886436
45	0x3eeb69b7	0.45979092
46	0xbe5ebe05	-0.21752174
47	0x3f214734	0.6299927
48	0x3d69ab15	0.057047922
49	0xbe9efc5f	-0.3105192
50	0x3e1b7896	0.15182719
51	0x3e2b6b32	0.1674011
52	0xbe476664	-0.19472653
53	0x3f14384f	0.5789842
54	0x3deb9509	0.115030356
55	0x3f071d03	0.52778643
56	0xbede9b4f	-0.43477866
57	0x3e8d735b	0.27627072
58	0x3e06953f	0.1314287
59	0x3d26ed24	0.0407535
60	0xbd5462ce	-0.05185204
61	0x3d07787a	0.03307388
62	0xbe47334e	-0.19453165
63	0x3e2532d1	0.16132666
64	0xbe2b1549	-0.16707338
65	0xbed55d6c	-0.41672838
66	0x3d6a8409	0.057254825
67	0xbe29d090	-0.16583467
68	0xbe13263a	-0.14370051
69	0xbea0a86d	-0.313785
70	0x3e90537b	0.2818869
71	0x3f255656	0.64584863
72	0xbe8e6260	-0.2780943
73	0xbecdc616	-0.4019019
74	0xbd1989a0	-0.037484765
75	0x3e8985be	0.2685985
76	0xbeb33984	-0.35004818
77	0x3efcf759	0.4940746
78	0x3ec98ac4	0.39363682
79	0xbe7e87a9	-0.24856438
80	0x3e67632b	0.22596423
81	0x3ecd3ab7	0.40083858
82	0xbe66dba9	-0.22544731
83	0x3e2dbbe9	0.16966213
84	0xbea3375a	-0.31878167
85	0xbeb12609	-0.3459933
86	0xbef765c9	-0.48319843
87	0x3e442d2a	0.19157854
88	0xbef198b5	-0.4718682
89	0x3ed83dcb	0.42234644
90	0xbeed54fb	-0.46353897
91	0xbe66c25d	-0.22535081
92	0x3eada9d3	0.33918628
93	0x3ecaf053	0.39636478
94	0xbcea6337	-0.028611762
95	0xbf0a9447	-0.54132503
96	0xbdd60869	-0.10450823
97	0xbe410ea0	-0.18853235
98	0xbe1d8788	-0.15383732
99	0x3e4eb64a	0.20186725
100	0x3f0617a6	0.52379835
101	0x3d9640fe	0.07336615
102	0xbdf3942c	-0.11893496
103	0x3f12cff8	0.57348585
104	0x3e0bbd92	0.13646534
105	0x3ef5c94e	0.48005146
106	0xbea1caff	-0.31600186
107	0x3dd496b9	0.103803106
108	0xbe8eb225	-0.27870288
109	0xbf78b010	-0.9714365
110	0x3ea06e51	0.31334165
111	0x3e804cba	0.25058538
112	0x3f621c0a	0.88324034
113	0x3e75b717	0.23995624
114	0xbe2e1e0d	-0.17003651
115	0x3f1b21a8	0.6059823
116	0xbf179041	-0.5920449
117	0x3c671db9	0.0141062075
118	0x3f69c3ab	0.9131419
119	0x3e693c40	0.2277689
120	0x3bb09b30	0.0053895935
121	0x3f0bee7f	0.5466079
122	0xbf3ec7ca	-0.74523604
123	0x3ea76514	0.32694304
124	0xbf7e8317	-0.9941878
125	0x3dde4337	0.10852664
126	0x3f81236d	1.0088936
127	0xba091933	-0.000522989
128	0x3d647754	0.055777863
129	0xbeb3e2f3	-0.35134086
130	0xbeba1158	-0.36341357
131	0xbe87c41e	-0.26516813
132	0x3d1e93fc	0.038715348
133	0xbec60d7d	-0.38682166
134	0xbf4d53e9	-0.8020616
135	0x3decc8a9	0.115617104
136	0x3ea14627	0.31498834
137	0xbf431e84	-0.7621844
138	0x3ef17ae0	0.4716406
139	0x3ee1d176	0.4410512
140	0x3e08ae9d	0.1334786
141	0x3ed2f322	0.4120112
142	0x3ea16d3d	0.31528655
143	0x3cd8eae0	0.026479185
144	0x3e373763	0.17892222
145	0x3e3f9791	0.18710162
146	0xbe97b3ba	-0.29629308
147	0x3e0f885c	0.1401686
148	0x3e6b726a	0.22992864
149	0xbf1b7777	-0.60729164
150	0xbecfb41d	-0.40567103
151	0xbe7444c7	-0.23854361
152	0x3d06efd7	0.032943573
153	0x3e94aec0	0.29039574
154	0x3e95bee4	0.292472
155	0x3eb8c9cc	0.3609146
156	0x3e9208e2	0.28522402
157	0xbc41017c	-0.011780139
158	0x3e66b35e	0.2252936
159	0x3d907792	0.07054056
160	0x3df382ff	0.1189022
161	0xbe8ea9e6	-0.27863997
162	0x3eec5ce4	0.4616462
163	0xbed47196	-0.4149291
164	0x3e08ffc4	0.13378817
165	0xbdab69a0	-0.08369756
166	0x3bcdeb03	0.006284119
167	0x3f040faf	0.5158643
168	0x3c8c6c20	0.017141402
169	0x3e350199	0.1767639
170	0xbea4efd7	-0.32214233
171	0x3e924549	0.28568485
172	0x3dcda771	0.100417025
173	0xbdbb7de7	-0.09154873
174	0x3e661833	0.22470169
175	0x3fa5e6df	1.2961081
176	0xbcbd4a4d	-0.023106718
177	0x3d9b735e	0.07590364
178	0x3e2ca292	0.1685889
179	0x3f0dc9e3	0.5538618
180	0x3e8a134b	0.26967844
181	0x3e58ec11	0.21183802
182	0x3e87782c	0.2645887
183	0xbf073746	-0.52818716
184	0xbb2fec6f	-0.0026843806
185	0x3e0b1d2f	0.13585351
186	0x3d2c1b9d	0.04201852
187	0x3f24aea7	0.64329
188	0x3dbd6d69	0.09249384
189	0xbd534634	-0.051580623
190	0xbf371fd7	-0.7153296
191	0xbe680094	-0.2265647
192	0x3d9e64ae	0.07734047
193	0x3e68ad34	0.22722322
194	0x3e81e577	0.2537038
195	0xbeb6d386	-0.35708255
196	0xbe775dbb	-0.24156849
197	0x3dc35895	0.0953838
198	0x3e8ec704	0.27886212
199	0xbe2155c7	-0.15755378
200	0x3e16e0a3	0.1473413
201	0xbf4a00e4	-0.7890761
202	0xbf2bf0d1	-0.6716433
203	0x3ed68c68	0.41903996
204	0xbdcc5400	-0.09976959
205	0x3ec7d8e1	0.39032653
206	0xbf02259f	-0.50838655
207	0xbcb6cf16	-0.022315543
208	0xbec950c4	-0.39319432
209	0x3e6e32c5	0.23261555
210	0x3f0c30e7	0.5476212
211	0xbd4d3856	-0.050102554
212	0xbdbedf6e	-0.093199596
213	0xbf72765f	-0.9471187
214	0x3eb29e69	0.34886482
215	0xbe3cd529	-0.18440689
216	0x3e11b3a8	0.1422869
217	0xbe4e90f6	-0.20172486
218	0x3e73d9e1	0.23813583
219	0xbea2f938	-0.31830764
220	0xbe4f60d4	-0.20251781
221	0xbf7131d8	-0.9421668
222	0xbe14d47d	-0.14534183
223	0xbd44320e	-0.0478993
224	0xbd2be7f9	-0.041969273
225	0xbe81515d	-0.25257388
226	0xbe9683e4	-0.293975
227	0xbd87acf2	-0.066247836
228	0x3f85757e	1.0426481
229	0x3eccb0a8	0.39978528
230	0x3df9db5c	0.122000426
231	0xbc6c3f74	-0.014419425
232	0xbd996232	-0.074894324
233	0xbf404697	-0.7510771
234	0xbe3d1362	-0.18464425
235	0x3eae1e8a	0.34007674
236	0xbc8d522e	-0.0172511
237	0x3ee36717	0.4441459
238	0x3db7e6bd	0.08979557
239	0xbf0941a3	-0.5361578
240	0xbedc2647	-0.42997953
241	0xbdada354	-0.08478418
242	0xbed0f6d1	-0.40813306
243	0x3eacaf78	0.33727622
244	0xbf0a72b2	-0.5408126
245	0xbe2f3e9c	-0.17113727
246	0xbe6dff4e	-0.23241922
247	0x3f57771d	0.8416613
248	0xbc9c46a6	-0.019076657
249	0x3e0b7078	0.13617122
250	0xbeaabc55	-0.3334681
251	0xbeab2742	-0.3342839
252	0x3e69036d	0.22755213
253	0xbe9300ea	-0.28711635
254	0x3f693efa	0.9111172
255	0xbe8a6dc8	-0.2703688

net.2.bias f4 [64]
0	0x3e189e7c	0.14904207
1	0xbf04d8a3	-0.5189306
2	0xbb944528	-0.0045248456
3	0xbe35fd64	-0.17772442
4	0x3eaf8c77	0.34286854
5	0x3e693780	0.22775078
6	0xbd939e07	-0.07207876
7	0xbe47ebbe	-0.19523522
8	0xbe918a5a	-0.28425866
9	0xbe0759c4	-0.13217837
10	0xbdde4b06	-0.10854153
11	0xbc8484c1	-0.016176583
12	0x3d5a0063	0.053223025
13	0xbeb5855d	-0.3545331
14	0xbcac3eb1	-0.021025987
15	0x3eff9019	0.49914625
16	0x3e6eb54b	0.23311345
17	0x3cd13332	0.025537107
18	0x3c530d95	0.012881656
19	0xbe8903de	-0.26760763
20	0xbea43d38	-0.32077956
21	0xbc7b1353	-0.0153244315
22	0xbcad24f7	-0.02113579
23	0x3cc1421a	0.02359109
24	0xbd508040	-0.05090356
25	0xbe27aaaa	-0.16373697
26	0xbd0b9e9a	-0.0340868
27	0xbc80761d	-0.01568132
28	0x3daaa937	0.083330564
29	0x3e917a1f	0.28413484
30	0x3bda6c4a	0.006665741
31	0xbeb1a010	-0.3469243
32	0xbbdc3a30	-0.0067208037
33	0xbec38fc9	-0.38195637
34	0x3bda487f	0.0066614742
35	0xbd99ae02	-0.075038925
36	0x3e447ffe	0.1918945
37	0x3df56719	0.11982555
38	0x3f2e899c	0.68178725
39	0x3d7e32a4	0.062060013
40	0x3db3e347	0.08783584
41	0x3e15042b	0.14552371
42	0xbe46fdf6	-0.19432816
43	0x3eaea4da	0.34110147
44	0x3e8c67be	0.274229
45	0x3ce0016e	0.027344432
46	0x3ef8b148	0.48572755
47	0xbea6562c	-0.3248762
48	0xbd52442f	-0.051334556
49	0x3d8a6169	0.06756861
50	0x3b940d1d	0.004518165
51	0xbd327c46	-0.043575548
52	0x3ece1189	0.40247753
53	0xbcc91c03	-0.02454949
54	0x3dee16ba	0.116254285
55	0x3d4f67d3	0.050636124
56	0x3df4d4aa	0.11954625
57	0x3e50c0cd	0.20386048
58	0x3e42a775	0.19009192
59	0xbea085dd	-0.3135213
60	0xbef5367a	-0.47893125
61	0x3c3a4fb8	0.0113715455
62	0xbe94222f	-0.2893233
63	0x3e3860f1	0.1800573

net.4.weight f4 [1, 64]
0	0xbde50307	-0.11182218
1	0xbdc08961	-0.09401203
2	0x3e130679	0.14357938
3	0xbdb93658	-0.090435684
4	0x3e8e87d5	0.27838007
5	0x3e123186	0.14276704
6	0xbb420739	-0.0029606356
7	0xbe041ac1	-0.12900831
8	0x3e31c6a1	0.17360927
9	0xbe1f4395	-0.15553124
10	0xbd9c1f6a	-0.07623179
11	0x3dc87f97	0.09789961
12	0x3873eefa	5.815828e-05
13	0x3e77f8b0	0.2421596
14	0xbdefb538	-0.117044866
15	0xbe3e641c	-0.18592876
16	0x3dedd53b	0.11612936
17	0xbaa4a894	-0.0012562447
18	0xb99b96ac	-0.00029676163
19	0x3e024062	0.12719873
20	0xbdb8dac2	-0.090261
21	0x3b896a53	0.004193583
22	0x3e2622d1	0.16224219
23	0xbac0e3e0	-0.001471635
24	0xbde76c3c	-0.11299941
25	0xbd8bbffb	-0.06823727
26	0x3baad1d5	0.005213002
27	0x3a889ba0	0.0010422356
28	0x3daa8163	0.0832546
29	0xbe0b2e9b	-0.13591997
30	0x3b84ccad	0.0040527196
31	0xbe1384eb	-0.14406173
32	0x3b923517	0.004461895
33	0xbdc6e090	-0.09710801
34	0x3a7ed804	0.000972152
35	0xbdc28f4a	-0.094999865
36	0xbde8afa8	-0.11361629
37	0xbdc462ca	-0.09589155
38	0x3dffc6d2	0.12489094
39	0x3a749cd9	0.00093312335
40	0x3da556ee	0.08073221
41	0xbdacdc5c	-0.08440468
42	0xbe0c76c4	-0.1371718
43	0x3d7c47e6	0.061592005
44	0xbe079461	-0.13240196
45	0x3b75e260	0.0037518963
46	0xbe92f8a2	-0.28705317
47	0xbdf28c95	-0.1184322
48	0xbe3bac9e	-0.18327567
49	0x3de44102	0.11145212
50	0xbb6e5efb	-0.003637253
51	0xbe0d04a7	-0.13771306
52	0x3e83caaf	0.25740573
53	0x369a1f80	4.5932247e-06
54	0xbdd7f6c0	-0.10545111
55	0x3bc2fe14	0.0059506986
56	0xbe2d9ef2	-0.16955164
57	0xbe52ac4e	-0.20573542
58	0x3e2095b2	0.15682104
59	0xbd897a72	-0.06712808
60	0xbde669fb	-0.11250683
61	0x3b3c89e7	0.002876872
62	0xbe53e28a	-0.20691887
63	0xbe17d77a	-0.14828292
